model/model.pth (torch, 16799 bytes, 4 tensors)

linear1.weight f4 [256, 11]
-0.29470456 0.32134 -0.08821247 -0.07332834 -0.13767299 -0.1210878 0.26316175 -0.2101207
-0.056922983 0.11493004 -0.012943573 -0.108405754 -0.083782434 0.19243076 0.050410002 -0.10470798
-0.026486713 -0.28453553 -0.6300671 -0.088095404 -0.22926478 -0.26279098 0.16636409 0.035614353
0.15588826 -0.38701725 -0.12943573 -0.41372088 0.007601577 0.27417633 -0.028374111 0.2017115
-0.17168656 -0.13521178 0.3282097 0.08075711 -0.11897783 -0.00022454507 -0.60525846 0.19155654
-0.46495265 0.19820292 -0.3272157 -0.5489167 -0.0999949 0.044796973 -0.5204639 -0.16801463
0.077944174 0.2708861 -0.40523216 -0.055911496 -0.33664936 -0.36959144 0.10694539 -0.71093214
0.3078599 0.4236586 0.0102341985 -0.25676033 -0.26593846 -0.13899028 0.18868008 -0.0029805074
0.16051562 0.14634553 0.27079993 0.07122601 -0.24439672 0.049026746 0.09459147 -0.069735475
-0.07088445 0.31686094 0.2376439 0.22403447 0.2836565 -0.15210508 0.2888403 0.031077543
-0.15203008 -0.28929764 -0.18356088 -0.17951679 -0.2986259 0.13321969 0.0076968702 0.03557893
0.76056314 -0.55300194 -0.017443253 -0.30844498 0.37374333 -0.01528364 0.51085246 0.45407158
-0.282019 0.14464124 -0.340361 0.37563416 -0.34132203 -0.22580236 0.2531582 -0.04060257
-0.24106473 0.08502354 -0.22558145 0.21145087 0.38501137 -0.079148866 0.6596328 0.081211105
-0.65880346 0.36816058 -0.028478427 -0.24337542 -0.023919763 -0.32329902 0.17547128 0.45701677
0.17020516 0.20631227 -0.0611559 0.027794987 -0.044824094 -0.106283434 -0.16503009 -0.05022652
-0.10525056 -0.19841732 -0.27485153 -0.18354036 0.05033515 -0.8098323 0.00043075925 -0.19662848
0.2874926 0.29574463 0.15150803 -0.07524109 0.028581677 -0.32847947 -0.09680482 0.053857192
0.2252686 0.5181617 0.13324285 0.058760505 0.069033585 0.13588467 0.3337336 0.36044264
0.41766083 0.3217566 -0.12841998 0.10066338 -0.15217526 -0.2895762 -0.06615931 0.13495165
-0.10850309 0.04234208 -0.21478307 -0.026595399 0.042018097 0.052715257 0.048757683 0.05057116
-0.30659208 0.2115486 -0.5756269 0.326823 0.39138615 -0.1637594 0.59878296 -0.18650939
0.57730013 -0.079413086 -0.33306262 0.024997955 -0.19838461 -0.39316165 0.26901415 0.021186167
-0.021693042 0.36612535 -0.24891177 0.37051415 0.28491244 -0.67439765 -0.14854966 0.14750224
0.027397746 -0.3188415 -0.0022508386 -0.16485082 -0.005168077 -0.3234566 0.5012214 -0.3389056
0.39815325 -0.09532971 0.26356018 -0.36164477 -0.25622982 -0.0021145132 -0.40616995 0.2560163
0.20540954 -0.12097164 -0.36343217 -0.101615176 0.081590176 0.17974065 -0.26347116 -0.18046735
0.27441484 0.14218105 -0.5273848 -0.5566935 -0.03753487 0.32366708 -0.49070665 -0.027248807
-0.24081066 -0.24399559 0.016207146 -0.33085063 0.1391158 -0.15670227 0.08014957 -0.40403882
0.50840056 0.20948032 -0.4099545 0.2979079 0.24539763 -0.2957288 -0.25478742 0.26593578
0.24228851 -0.20568523 -0.37959507 0.004696723 0.00036549332 0.059617486 -0.432932 0.2911615
-0.4595092 -0.5284054 0.21627876 -0.5120518 -0.32167554 -0.45193678 -0.21758667 -0.17255129
00000000: 84e3 96be ad86 a43e bda8 b4bd 2b2d 96bd
00000010: 26fa 0cbe e1fc f7bd 23bd 863e e129 57be
00000020: 1328 69bd 7160 eb3d 4811 54bc d603 debd
00000030: 2096 abbd 920c 453e b87a 4e3d 2371 d6bd
00000040: aafa d8bc a4ae 91be 144c 21bf 5d6b b4bd
00000050: 63c4 6abe 8a8c 86be 595b 2a3e 5be0 113d
00000060: 2ca1 1f3e 2027 c6be cd8a 04be 39d3 d3be
00000070: a616 f93b d760 8c3e d370 e8bc 768d 4e3e
00000080: 9ace 2fbe f574 0abe 1a0b a83e fc63 a53d
00000090: a6aa f3bd dc73 6bb9 38f2 1abf 6627 443e
000000a0: 460e eebe b5f5 4a3e d188 a7be ce85 0cbf
000000b0: 20ca ccbd 087d 373d 1f3d 05bf 070c 2cbe
000000c0: 32a1 9f3d 95b1 8a3e 977a cfbe 7403 65bd
000000d0: 4e5d acbe 173b bdbe 2f06 db3d a6ff 35bf
000000e0: d09f 9d3e c8e9 d83e 57ad 273c 1776 83be
000000f0: 1629 88be 7853 0ebe 5a35 413e 9e54 43bb
00000100: 355e 243e 9adb 153e 4aa6 8a3e f1de 913d
00000110: 2243 7abe 45d0 483d 2cb9 c13d 79d1 8ebd
00000120: de2b 91bd 993b a23e ec58 733e 4b69 653e
00000130: 6d3b 913e 6fc1 1bbe e0e2 933e 5596 fe3c
00000140: c6ad 1bbe d21e 94be 62f7 3bbe 40d3 37be
00000150: 7ee5 98be be6a 083e 0736 fc3b 36bb 113d
00000160: 44b4 423f 8991 0dbf 27e5 8ebc 80ec 9dbe
00000170: 495b bf3e 3b68 7abc 3ac7 023f 127c e83e
00000180: cb64 90be d51c 143e cc43 aebe 1f53 c03e
00000190: c3c1 aebe bc38 67be f49d 813e e14e 26bd
000001a0: acd9 76be d220 ae3d d3fe 66be 9486 583e
000001b0: 3620 c53e cd18 a2bd b2dd 283f 0252 a63d
000001c0: 58a7 28bf 8b7f bc3e 974b e9bc 6837 79be
000001d0: 61f3 c3bc 7387 a5be beae 333e 1afe e93e
000001e0: 434a 2e3e 8643 533e 9c7e 7abd 50b2 e33c
000001f0: 7899 37bd 21ab d9bd a6fd 28be 53ba 4dbd
00000200: 9b8d d7bd e92d 4bbe 57b9 8cbe 01f2 3bbe
00000210: 3b2c 4e3d 2b51 4fbf 87d7 e139 fa58 49be
00000220: 3b32 933e d76b 973e ec24 1b3e 0018 9abd
00000230: 1f24 ea3c 762e a8be 9b41 c6bd 5c99 5c3d
00000240: d0ac 663e 3fa6 043f d070 083e dbae 703d
00000250: 7b61 8d3d 5a25 0b3e 21df aa3e f08b b83e
00000260: a4d7 d53e 48bd a43e 8780 03be 9a28 ce3d
00000270: d5d3 1bbe 5543 94be 887e 87bd c430 0a3e
00000280: de36 debd e46e 2d3d 18f0 5bbe 98de d9bc
00000290: 2b1b 2c3d f4eb 573d 23b6 473d b423 4f3d
000002a0: a3f9 9cbe 32a0 583e 495c 13bf 5855 a73e
000002b0: c463 c83e 8bb0 27be d749 193f 51fc 3ebe
000002c0: f1c9 133f 54a3 a2bd 2f87 aabe 83c8 cc3c
000002d0: 5625 4bbe 7c4c c9be 39bc 893e 9d8e ad3c
000002e0: 9bb5 b1bc c874 bb3e bae2 7ebe 08b4 bd3e
000002f0: 0be0 913e 53a5 2cbf 671d 18be d40a 173e
00000300: 3d71 e03c 313f a3be ce82 13bb a7ce 28be
00000310: f958 a9bb 1a9c a5be 0c50 003f 0985 adbe
00000320: beda cb3e 393c c3bd 5cf1 863e 8129 b9be
00000330: 8e30 83be a593 0abb 82f5 cfbe 9214 833e
00000340: e156 523e fbbf f7bd c813 babe 9e1b d0bd
00000350: c018 a73d ef0d 383e b1e5 86be 6fcc 38be
00000360: 1a80 8c3e e997 113e b102 07bf 7783 0ebf
00000370: 2abe 19bd b1b7 a53e e73d fbbe e438 dfbc
00000380: 1297 76be fbd9 79be d9c4 843c 4165 a9be
00000390: 5f74 0e3e 8f76 20be 7525 a43d 2dde cebe
000003a0: 8a26 023f 0282 563e 8ee5 d1be 6287 983e
000003b0: 8449 7b3e c469 97be 7f73 82be bc28 883e
000003c0: 7b1a 783e 269f 52be 495a c2be f8e6 993b
000003d0: af9f bf39 7731 743d 43a9 ddbe 1f13 953e
000003e0: ca44 ebbe 9445 07bf 2e78 5d3e d415 03bf
000003f0: a8b2 a4be 4264 e7be 0acf 5ebe 49b1 30be

linear1.bias f4 [256]
-0.37652293 -0.17863409 -0.18903518 -0.013734112 0.05537429 0.108976506 -0.41770148 -0.3866765
-0.15507104 -0.093685366 -0.18456708 -0.115643606 0.82470745 -0.51672214 -0.45544517 -0.106352344
-0.02568957 0.34705427 -0.05261823 0.44178402 -0.13434319 0.010775809 0.21967524 -0.18346721
-0.10088446 0.3538716 -0.2614262 -0.13426267 0.11282037 -0.08083436 0.25830877 -0.030196777
0.32208022 0.8140048 0.21817216 -0.32340828 -0.3766693 0.091396764 0.17080718 -0.013475828
-0.22172761 -0.016282726 -0.14134924 -0.48715398 -0.24972486 -0.24603547 -0.22905855 0.01946847
0.055379324 -0.29357657 -0.22967456 -0.30092812 -0.20729321 -0.067826934 0.12298493 0.09621381
0.19042836 -0.35535288 0.054340877 -0.03441684 0.3992749 -0.38711 -0.038103115 -0.15894341
-0.1968276 -0.26194558 0.35703284 -0.42137384 -0.12460831 -0.12376534 -0.2782799 0.06612759
0.6457871 0.29483932 -0.20951332 0.07373337 -0.2583274 -0.24361332 0.17161913 -0.3500587
0.02890728 -0.15258451 -0.34460542 -0.16237809 -0.12915714 -0.09916476 0.1951387 -0.3348764
-0.29827937 -0.039945688 -0.26361132 -0.1364265 -0.2802471 -0.46762976 -0.24925192 -0.32219929
0.03507938 -0.13307533 0.2460987 0.0068216734 -0.19116232 -0.3487354 -0.31571445 -0.39712954
-0.35293972 0.08579452 -0.20968416 -0.055185325 0.21019298 0.14307456 0.1350076 0.04857391
-0.26885146 -0.060607262 -0.015901392 -0.08627444 -0.4614968 -0.32794392 -0.04391113 -0.14915353
-0.1363729 -0.09901457 -0.36487943 -0.33456394 -0.0031362514 0.12822248 -0.3689376 -0.18215685
-0.20949082 -0.21363953 -0.20124374 -0.06869563 -0.031126093 -0.15655892 -0.27484193 -0.13769682
0.16002442 -0.3197126 -0.07505529 -0.104204625 0.27220926 0.0066813435 0.10145444 -0.34962526
-0.32702804 -0.14141725 -0.10518306 -0.25414875 -0.25474173 -0.26227584 -0.09301783 -0.1889207
0.035217125 -0.30295002 -0.38909575 -0.4202991 -0.117242455 0.16014066 -0.2985722 0.26242572
-0.16923562 -0.09551321 -0.021126417 -0.2186392 -0.1912718 -0.0853186 -0.22123867 -0.4221921
0.08535155 -0.25138155 -0.010429178 0.20363785 -0.36657336 -0.38175932 0.32400215 -0.46835545
-0.088424556 -0.3286022 -0.43163785 -0.35589057 -0.16969427 -0.21870285 0.013235899 -0.29313844
0.033168565 -0.102840215 0.0166737 -0.20142771 -0.13021147 0.15198249 0.013859996 -0.30045438
-0.15387489 -0.2815924 -0.29353258 0.29617614 -0.30503133 -0.022390263 -0.12249046 -0.06603182
-0.22597703 -0.2633305 0.022462385 -0.3924128 -0.37253314 1.3025658 0.16088657 -0.10576514
-0.36832014 0.052881867 -0.12697846 -0.03262931 -0.02906751 0.21621142 -0.31458974 -0.14737296
-0.08534304 0.20629092 -0.21499357 -0.040711205 0.764042 -0.05782062 -0.26054895 0.31203476
-0.19892259 -0.36867267 -0.30735117 -0.17194365 -0.05824051 -0.2344288 0.2071585 -0.29259565
-0.5140228 -0.114673495 0.46795824 -0.11303425 -0.26196864 -0.1918669 -0.00016699976 0.04578425
-0.15770397 -0.24768798 -0.33612135 -0.22119649 0.54701775 -0.24232006 -0.39722902 -0.2663754
0.22331338 -0.4694535 0.13371481 -0.25329614 -0.35141233 -0.09626662 -0.46276087 -0.15863523
00000000: 9dc7 c0be dbeb 36be 7092 41be 0a05 61bc
00000010: 27d0 623d 132f df3d f8dc d5be 76fa c5be
00000020: f1ca 1ebe 1dde bfbd 27ff 3cbe 8ed6 ecbd
00000030: 0720 533f e747 04bf 1c30 e9be 42cf d9bd
00000040: ef72 d2bc 19b1 b13e 3786 57bd 8431 e23e
00000050: 4391 09be 058d 303c 8cf2 603e d4de 3bbe
00000060: 839c cebd a92e b53e a8d9 85be 277c 09be
00000070: 5e0e e73d 7c8c a5bd 0c41 843e 3b5f f7bc
00000080: b3e7 a43e 9e62 503f 8668 5f3e c595 a5be
00000090: ccda c0be 3a2e bb3d 14e8 2e3e b8c9 5cbc
000000a0: 900c 63be 5a63 85bc dbbd 10be 3f6c f9be
000000b0: e0b7 7fbe b9f0 7bbe 538e 6abe 577c 9f3c
000000c0: 6ed5 623d ab4f 96be cf2f 6bbe 4013 9abe
000000d0: ac44 54be d9e8 8abd 86df fb3d bf0b c53d
000000e0: a7ff 423e d0f0 b5be 8a94 5e3d acf8 0cbd
000000f0: c26d cc3e 4833 c6be 0312 1cbd 10c2 22be
00000100: 2d8d 49be bb1d 86be 02cd b63e 50be d7be
00000110: a432 ffbd af78 fdbd b47a 8ebe e76d 873d
00000120: 4e52 253f 2ef5 963e a98a 56be 8501 973d
00000130: 7d43 84be c575 79be edbc 2f3e e53a b3be
00000140: f6ce ec3c 1d3f 1cbe 1f70 b0be 7146 26be
00000150: c541 04be e516 cbbd 70d2 473e eb74 abbe
00000160: 13b8 98be 179e 23bd 10f8 86be 63b3 0bbe
00000170: 8c7c 8fbe 2b6d efbe e53b 7fbe 4ef7 a4be
00000180: 65af 0f3d e644 08be 4c01 7c3e 5888 df3b
00000190: 0ec0 43be 728d b2be 53a5 a1be 9054 cbbe
000001a0: 84b4 b4be 0ab5 af3d 72b7 56be 020a 62bd
000001b0: d43c 573e 2382 123e 6f3f 0a3e 70f5 463d
000001c0: e6a6 89be 523f 78bd a343 82bc a7b0 b0bd
000001d0: 4f49 ecbe 44e8 a7be 28dc 33bd b4bb 18be
000001e0: 56a5 0bbe 27c8 cabd 7ad1 babe f74b abbe
000001f0: 9189 4dbb c14c 033e 64e5 bcbe 5387 3abe
00000200: c384 56be 52c4 5abe d712 4ebe 4bb0 8cbd
00000210: 26fc febc fb50 20be 15b8 8cbe 6500 0dbe
00000220: 71dd 233e 5fb1 a3be 96b6 99bd 3c69 d5bd
00000230: 035f 8b3e 2cef da3b 58c7 cf3d 1502 b3be
00000240: 3870 a7be afcf 10be 376a d7bd c91f 82be
00000250: 826d 82be 0549 86be 2280 bebd 6e74 41be
00000260: d53f 103d 441c 9bbe 8f37 c7be 7231 d7be
00000270: d01c f0bd eafb 233e 75de 98be aa5c 863e
00000280: 1a4c 2dbe 6e9c c3bd 4f11 adbc f4e2 5fbe
00000290: c1dc 43be 85bb aebd 648c 62be 9029 d8be
000002a0: cbcc ae3d 15b5 80be 25df 2abc 7186 503e
000002b0: 81af bbbe f575 c3be 9ce3 a53e 49cc efbe
000002c0: ef17 b5bd 8c3e a8be a3ff dcbe 4a37 b6be
000002d0: 56c4 2dbe a4f3 5fbe 62db 583c 3e16 96be
000002e0: c3db 073d e49d d2bd 4997 883c 1143 4ebe
000002f0: 2856 05be 4ca1 1b3e 0915 633c 28d5 99be
00000300: 6191 1dbe e12c 90be e749 96be 66a4 973e
00000310: 112d 9cbe c96b b7bc 47dc fabd b13b 87bd
00000320: 8666 67be 41d3 86be 0903 b83c 55ea c8be
00000330: aabc bebe 7aba a63f 73bf 243e 659b d8bd
00000340: 7594 bcbe a89a 583d a406 02be 50a6 05bd
00000350: fd1e eebc 8766 5d3e e811 a1be f0e8 16be
00000360: 55c8 aebd ed3d 533e 4627 5cbe cbc0 26bd
00000370: 4298 433f 50d5 6cbd ac66 85be 05c3 9f3e
00000380: 5db2 4bbe aac2 bcbe 225d 9dbe ff11 30be
00000390: 9a8d 6ebd 1a0e 70be 5c21 543e 19cf 95be
000003a0: 0097 03bf f0d9 eabd 3998 ef3e 807e e7bd
000003b0: c120 86be c278 44be a81c 2fb9 4488 3b3d
000003c0: 267d 21be eba1 7dbe 1918 acbe 5581 62be
000003d0: 5b09 0c3f c022 78be 9a61 cbbe 5b62 88be
000003e0: 43ac 643e 365c f0be 89ec 083e 08b0 81be
000003f0: 51ec b3be 6f27 c5bd feee ecbe 4671 22be

linear2.weight f4 [3, 256]
-0.003144701 -0.011790076 0.009536282 0.06966744 -0.23859693 0.06792983 -0.020123787 -0.008542124
-0.54764974 -0.13935024 -0.3468173 -0.033468015 0.21791515 -0.16033271 -0.025283342 -0.536347
-0.3388669 0.09381156 -0.15464257 0.35478467 0.0020064712 0.2812784 -0.31836367 -0.18849036
0.10566852 0.20545076 -0.31438255 0.21663722 0.009794867 -0.18918078 0.41832694 -0.027579095
0.3271316 0.58396345 0.07869479 -0.20256472 0.0011615311 0.20929308 0.34203154 0.27809763
0.0054910984 -0.3855755 -0.0003805475 -0.2085548 -0.30674648 0.0013485693 -0.20273362 -0.015686968
-0.0059501547 -0.26553532 -0.5044244 -0.13158475 0.06078283 -0.07486699 -0.21381438 0.17255701
0.13487798 -0.022453452 0.38673064 0.011140146 0.6435848 0.006070016 0.17777947 -0.0706357
-0.047907792 -0.023059595 0.066462845 0.055472426 -0.30288613 -0.046801854 -0.015885634 -0.3089269
0.6148896 0.49389133 -0.108872674 -0.27774465 -0.37889227 -0.31268808 0.41579837 -0.33354
0.4217324 0.38782042 -0.10353247 -0.16648906 0.09643154 -0.36492705 0.4652579 -0.009864528
-0.1553279 -0.44818926 -0.038094122 0.023737263 -0.025278013 -0.08615748 -0.08106037 -0.23062563
0.033241816 -0.24111328 0.34214368 0.08684869 -0.21640357 -0.040859655 -0.15555601 -0.185374
-0.06612315 -0.1924336 -0.012195746 0.024860939 0.42048976 0.56182265 0.05060271 -0.34381732
-0.22782025 -0.37710422 -0.23280343 0.28093106 0.009683969 0.026936581 0.16461687 -0.03897119
-0.017911801 -0.09004011 -0.034681175 -0.066274755 0.40006325 0.42344794 -0.07378187 0.38732696
-0.041280955 -0.14251444 -4.5135108e-05 -0.64395016 -0.29118764 -0.18342298 -0.07765834 -0.00012563379
0.07897379 0.06985953 -0.36093044 -0.04067786 0.1596353 0.008151749 -0.19280936 -0.35917044
-0.12448612 0.1933928 0.09385848 -0.60999596 0.08202342 0.021743782 0.36429018 0.14636922
0.36373386 -0.2004439 0.019450312 0.03406624 0.08213292 0.30850467 -0.21384016 0.37000766
-0.23560753 -0.27151892 -0.5907073 0.0010994786 -0.22434826 0.24979654 -0.29788783 -0.08201191
0.37905887 -0.087482765 -0.012371515 0.33583313 -0.16485623 0.033825368 0.3733526 -0.28067213
0.18265487 0.028395208 -0.1421641 -0.38113892 -0.037417263 0.011957712 0.03242236 -0.06633193
0.09925656 -0.12131402 0.53074294 -0.04902085 -0.0022701933 0.5757109 0.11163378 0.00012228692
-0.056187015 0.01214533 -0.20320983 0.39244646 -0.39283627 -0.42683637 -0.17687517 -0.0071217567
-0.07391476 -0.09548933 0.35101005 0.031358782 -0.018261392 0.23357826 0.26614574 0.13343354
0.039053034 0.0896829 0.11955364 0.1725252 -0.31827736 0.09371262 -0.09056095 0.008814982
0.10568127 0.29608965 0.31202397 0.43974274 0.44095546 -0.10927254 -0.008260597 0.10376587
-0.059108082 -0.09806528 0.07518691 -0.46697718 0.30132172 -0.16210547 0.25530806 -0.1064385
-0.027192228 0.0402185 0.17801957 -0.032944325 -0.11927268 -0.06193324 -0.3254438 -0.020844648
-0.018944908 -0.021637937 -0.03702014 -0.0796147 0.24380186 0.030218333 -0.04843859 -0.47880998
0.043704234 0.007205726 0.21933477 0.025406664 0.053891603 -0.57483697 0.0034919311 0.037125535
00000000: 5417 4ebb 2a2b 41bc 113e 1c3c cead 8e3d
00000010: c152 74be cb1e 8b3d a4da a4bc 44f4 0bbc
00000020: c632 0cbf d4b1 0ebe 0a92 b1be c215 09bd
00000030: 2625 5f3e 422e 24be 031f cfbc 094e 09bf
00000040: f67f adbe 4620 c03d 9f5a 1ebe 56a6 b53e
00000050: 007f 033b b903 903e 9000 a3be 9e03 41be
00000060: bd68 d83d af61 523e c0f6 a0be 26d6 5d3e
00000070: a67a 203c 9bb8 41be f32e d63e 8eed e1bc
00000080: cb7d a73e a17e 153f bc2a a13d 206d 4fbe
00000090: 843e 983a ed50 563e c21e af3e d062 8e3e
000000a0: acee b33b 276a c5be 3984 c7b9 648f 55be
000000b0: e00d 9dbe 7ac2 b03a 6799 4fbe f581 80bc
000000c0: 84f9 c2bb 3ff4 87be f521 01bf 27be 06be
000000d0: 6bf7 783d dd53 99bd 28f2 5abe c9b2 303e
000000e0: 741d 0a3e 4df0 b7bc 8f01 c63e 2985 363c
000000f0: f9c1 243f fce6 c63b d20b 363e 73a9 90bd
00000100: f63a 44bd 7ae7 bcbc ac1d 883d 0e37 633d
00000110: e413 9bbe 4db3 3fbd 9722 82bc ab2b 9ebe
00000120: 6869 1d3f 53df fc3e a3f8 debd 8c34 8ebe
00000130: 2bfe c1be a718 a0be 86e3 d43e c1c5 aabe
00000140: 4fed d73e 6690 c63e d508 d4bd 1c7c 2abe
00000150: e67d c53d b8d7 babe 4936 ee3e d49e 21bc
00000160: 470e 1fbe 1079 e5be 9508 1cbd a674 c23c
00000170: d613 cfbc 5573 b0bd fb02 a6bd 2029 6cbe
00000180: 9228 083d 66e6 76be 752d af3e badd b13d
00000190: e698 5dbe 745c 27bd 134a 1fbe afd2 3dbe
000001a0: 936b 87bd 500d 45be abd0 47bc 2ba9 cb3c
000001b0: 6f4a d73e 9cd3 0f3f ca44 4f3d d308 b0be
000001c0: b649 69be ce13 c1be 0664 6ebe 32d6 8f3e
000001d0: 83a9 1e3c 1baa dc3c 5391 283e 41a0 1fbd
000001e0: c5bb 92bc f366 b8bd d90d 0ebd 0fbb 87bd
000001f0: 17d5 cc3e 2bce d83e f31a 97bd b84f c63e
00000200: 3816 29bd 4eef 11be 744f 3db8 ebd9 24bf
00000210: 8c16 95be 3cd3 3bbe 560b 9fbd 90bc 03b9
00000220: 03bd a13d 8312 8f3d e0cb b8be d49d 26bd
00000230: 7077 233e ea8e 053c d16f 45be 30e5 b7be
00000240: 94f2 febd c308 463e e038 c03d b228 1cbf
00000250: e5fb a73d 0420 b23c 3e84 ba3e d0e1 153e
00000260: 533b ba3e 2a41 4dbe 4356 9f3c 0b89 0b3d
00000270: 4e35 a83d 53f4 9d3e eaf8 5abe a571 bd3e
00000280: 1a43 71be 8704 8bbe 9838 17bf 611c 903a
00000290: 8dbb 65be aaca 7f3e c184 98be dcf5 a7bd
000002a0: 0114 c23e 2a2a b3bd e5b1 4abc 52f2 ab3e
000002b0: 12d0 28be 788c 0a3d 1228 bf3e 42b4 8fbe
000002c0: e109 3b3e 119d e83c 7793 11be a424 c3be
000002d0: d842 19bd 47ea 433c 4fcd 043d 09d9 87bd
000002e0: 0647 cb3d 7c73 f8bd c5de 073f 16ca 48bd
000002f0: 86c7 14bb ca61 133f 40a0 e43d 253a 0039
00000300: 5b24 66bd 35fd 463c 3d16 50be beee c83e
00000310: d621 c9be 4c8a dabe c41e 35be a05d e9bb
00000320: 9f60 97bd e98f c3bd 97b7 b33e 1172 003d
00000330: ea98 95bc 242f 6f3e 4144 883e cda2 083e
00000340: 13f6 1f3d abab b73d 8ad8 f43d 72aa 303e
00000350: 40f5 a2be 67ec bf3d 0578 b9bd b76c 103c
00000360: 6c6f d83d 1099 973e 9bc1 9f3e f625 e13e
00000370: eac4 e13e 48ca dfbd 7457 07bc 3383 d43d
00000380: 511b 72bd 73d6 c8bd 98fb 993d a217 efbe
00000390: d746 9a3e fafe 25be bdb7 823e 6efc d9bd
000003a0: 3cc2 debc 27bc 243d c34a 363e a1f0 06bd
000003b0: 3c45 f4bd b6ad 7dbd 92a0 a6be 65c2 aabc
000003c0: 5a32 9bbc 0b42 b1bc 6ea2 17bd 080d a3bd
000003d0: 32a7 793e 708c f73c 8b67 46bd 9526 f5be
000003e0: 3603 333d 031e ec3b 4b99 603e a321 d03c
000003f0: 71bd 5c3d 8428 13bf e2d8 643b f210 183d

linear2.bias f4 [3]
0.32124683 0.15038075 0.16087842
00000000: 777a a43e 69fd 193e 50bd 243e
