model/model.pth (torch, 16799 bytes, 4 tensors)

linear1.weight f4 [256, 11]
0	0xbe5da551	-0.21645094
1	0x3ed9cc24	0.4253856
2	0x3d467424	0.048450604
3	0x3cdda9a0	0.027058423
4	0xbdfafc98	-0.1225521
5	0x3cd62a82	0.026143316
6	0x3ebe2b05	0.37142196
7	0xbe61cb5d	-0.22050233
8	0x3dbd7646	0.092510745
9	0x3e127e7c	0.14306062
10	0x3e5a458a	0.2131559
11	0xbd453997	-0.048150625
12	0xbdd0e2a7	-0.101994805
13	0x3edebc41	0.43503
14	0x3e1e4cfa	0.15459052
15	0xbd5c3827	-0.05376449
16	0x3e363be5	0.17796285
17	0xbe4ce984	-0.20010954
18	0xbed9482e	-0.4243788
19	0x3de88bd8	0.11354798
20	0xbced497f	-0.02896571
21	0xbebaf471	-0.3651462
22	0x3e922eb4	0.28551257
23	0x3cef137c	0.029184096
24	0x3e4b7541	0.19868948
25	0xbe93dd67	-0.28879854
26	0xbe446418	-0.19178808
27	0xbea15490	-0.3150983
28	0x3dbab3a8	0.09116298
29	0x3e9898c8	0.29804063
30	0x3e129821	0.14315845
31	0x3ea3d8b4	0.3200127
32	0xbe509eb9	-0.20373048
33	0xbde0bffa	-0.109741166
34	0x3f017fd6	0.5058569
35	0xbe19fd8a	-0.15038124
36	0x3d121773	0.035666894
37	0x3d92902d	0.071564056
38	0xbe9aeed4	-0.30260336
39	0x3d897dbd	0.06713436
40	0xbe05e31b	-0.13074915
41	0x3e431099	0.190493
42	0xbe5ecfee	-0.21759006
43	0xbec80e0c	-0.39073217
44	0xbd0ebfc5	-0.034850854
45	0x3de2018d	0.11035452
46	0xbe5d6e77	-0.2162417
47	0xbdcc55a5	-0.09977273
48	0xbd82ed0c	-0.06392869
49	0x3e7dc38a	0.24781623
50	0xbed0a3f5	-0.4075009
51	0xbc122166	-0.008919096
52	0xbeb9a8d4	-0.36261618
53	0xbebc81a0	-0.36817646
54	0x3e5c4495	0.21510537
55	0xbf1fa7bc	-0.6236532
56	0x3e97c65a	0.29643518
57	0x3ed53d99	0.41648558
58	0x3e05b6a8	0.13057959
59	0xbdf32ffb	-0.11874386
60	0xbe8ce4bb	-0.27518257
61	0xbe025938	-0.12729347
62	0x3e61e081	0.22058298
63	0x3c6c37f4	0.014417637
64	0x3e782110	0.24231362
65	0x3e5c3a7d	0.21506687
66	0x3eaf367f	0.34221265
67	0x3dfc26cd	0.12312088
68	0xbe8b348c	-0.27188528
69	0x3d8bb4f2	0.06821622
70	0x3d6292cf	0.05531579
71	0xbd024de6	-0.03181257
72	0x3d117665	0.0355133
73	0x3e8d07a7	0.275449
74	0x3e827a53	0.2548395
75	0x3e9de365	0.3083755
76	0x3e73a9a7	0.23795186
77	0xbe1bc16f	-0.15210508
78	0x3e93e2e0	0.2888403
79	0x3cfe9655	0.031077543
80	0xbe1badc6	-0.15203008
81	0xbe941ed2	-0.28929764
82	0xbe3bf762	-0.18356088
83	0xbe37d340	-0.17951679
84	0xbe98e57e	-0.2986259
85	0x3e086abe	0.13321969
86	0x3bfc3607	0.0076968702
87	0x3d11bb36	0.03557893
88	0x3f17ce70	0.59299374
89	0xbf0e662a	-0.5562464
90	0xbc2438a3	-0.010023269
91	0xbe91c842	-0.28473097
92	0x3e8d194e	0.27558368
93	0xbcb4d65c	-0.02207487
94	0x3eef3376	0.4671895
95	0x3ec6d01c	0.3883065
96	0xbe37d5b1	-0.1795261
97	0x3dd33239	0.103123136
98	0xbea308db	-0.31842694
99	0x3e7f477a	0.2492961
100	0xbec17e5a	-0.3779171
101	0xbe7ae1a8	-0.24500144
102	0x3de6b1a8	0.11264354
103	0xbda439c0	-0.080188274
104	0xbe607b95	-0.21922143
105	0xbc338cd4	-0.010958869
106	0xbe78a177	-0.24280344
107	0x3e52ccaf	0.20585893
108	0x3ec6f2c5	0.38857093
109	0xbd760fbb	-0.060073595
110	0x3f039e6e	0.5141362
111	0x3d942e9e	0.07235454
112	0xbf16ac26	-0.5885643
113	0x3eac1c8f	0.33615538
114	0x3c1fa174	0.009743083
115	0xbe8a305b	-0.26990017
116	0xbe17c4d6	-0.1482118
117	0xbe5ac3fd	-0.21363826
118	0x3dda8b1d	0.10671065
119	0x3ead2265	0.33815303
120	0x3e69b9c4	0.2282477
121	0x3e534386	0.20631227
122	0xbd7a7e9c	-0.0611559
123	0x3ce3b250	0.027794987
124	0xbd379978	-0.044824094
125	0xbdd9ab21	-0.106283434
126	0xbe28fda6	-0.16503009
127	0xbd4dba53	-0.05022652
128	0xbdd78d9b	-0.10525056
129	0xbe4b2de9	-0.19841732
130	0xbe8cb957	-0.27485153
131	0xbe3bf201	-0.18354036
132	0x3dcc00c9	0.09961087
133	0xbf05525b	-0.5207879
134	0x3dd41c4d	0.103569604
135	0xbecdcb2e	-0.40194076
136	0x3e892824	0.26788437
137	0x3ea33f58	0.31884265
138	0x3e5928e4	0.21207005
139	0xbd140317	-0.03613576
140	0x3e3b307e	0.18280217
141	0xbec0e3a0	-0.37673664
142	0xbe007292	-0.12543705
143	0x3d219e07	0.039457347
144	0x3e3b5dee	0.1829755
145	0x3ef47928	0.47748685
146	0x3de7a93f	0.11311578
147	0x3d9d80fa	0.07690616
148	0x3d2b11e6	0.041765116
149	0x3e28f298	0.16498792
150	0x3e9610b7	0.29309627
151	0x3e96b9b1	0.29438546
152	0x3edea5a8	0.4348576
153	0x3e8ef38b	0.27920184
154	0xbe038087	-0.12841998
155	0x3dce289a	0.10066338
156	0xbe1bd3d5	-0.15217526
157	0xbe944355	-0.2895762
158	0xbd877e88	-0.06615931
159	0x3e0a30c4	0.13495165
160	0xbdde36de	-0.10850309
161	0x3d2d6ee4	0.04234208
162	0xbe5bf018	-0.21478307
163	0xbcd9de98	-0.026595399
164	0x3d2c1b2b	0.042018097
165	0x3d800716	0.062513515
166	0xbd1bf5c9	-0.038076196
167	0xbbf56b26	-0.0074895797
168	0xbe92d1e6	-0.28675765
169	0x3e0c1c2b	0.1368262
170	0xbf053f6a	-0.5204989
171	0x3e7bbb54	0.24583179
172	0x3eab3faa	0.3344701
173	0xbe1dea38	-0.15421379
174	0x3f0a9579	0.5413433
175	0xbe537f81	-0.20654108
176	0x3f1132cc	0.56718135
177	0xbe47a848	-0.19497788
178	0xbe4abccc	-0.19798583
179	0xbc4ffa46	-0.012693947
180	0xbda88bae	-0.08229767
181	0xbe9ec3ea	-0.31008846
182	0x3dec6a78	0.11543745
183	0x3d3c13b2	0.04591722
184	0xbad43a44	-0.0016191681
185	0x3e9921fa	0.29908735
186	0xbe0713d0	-0.13191152
187	0x3ec994cf	0.39371344
188	0x3eb56668	0.35429692
189	0xbee0c973	-0.43903694
190	0xbca687bb	-0.020328393
191	0x3dc88be4	0.09792307
192	0x3d6c00ca	0.05761794
193	0xbe97e308	-0.296654
194	0x3e271e24	0.16320091
195	0xbe012bd0	-0.1261437
196	0xbcd8ebb9	-0.026479589
197	0xbeb053da	-0.34438974
198	0x3eacf9ec	0.33784425
199	0xbe96ffc1	-0.29492
200	0x3ebd3b36	0.36959237
201	0xbdc19438	-0.094520986
202	0x3e9a6063	0.30151662
203	0xbf0d6dfe	-0.5524596
204	0xbe724958	-0.23660791
205	0x3cfcb395	0.03084735
206	0xbe8b4efb	-0.27208695
207	0x3e7881c7	0.24268256
208	0x3e73e6c2	0.23818496
209	0xbd4c5b88	-0.04989198
210	0xbe95cdb0	-0.2925849
211	0xbd06f487	-0.032948043
212	0x3d37a1a8	0.0448319
213	0x3e0536f8	0.1300925
214	0xbe88673c	-0.26641262
215	0xbe3109b2	-0.17288855
216	0x3e7f1dd9	0.2491373
217	0x3e7b206c	0.24524087
218	0xbeee46ca	-0.46538383
219	0xbef3456f	-0.4751391
220	0x3d7c8b50	0.061656296
221	0x3eac9c33	0.3371292
222	0xbec68bb7	-0.3877847
223	0xbcc9df75	-0.024642685
224	0xbda3b3d0	-0.07993281
225	0xbe976487	-0.29568884
226	0x3e548f76	0.20757851
227	0xbe8bba7c	-0.27290714
228	0x3e683d76	0.22679695
229	0xbdc2d678	-0.09513563
230	0x3e00f353	0.12592821
231	0xbea9549a	-0.33072358
232	0x3eedc065	0.46435848
233	0x3e264ed5	0.1624101
234	0xbe85c603	-0.26127633
235	0x3e46f828	0.19430602
236	0x3e863a82	0.26216513
237	0xbe8fd37a	-0.2809103
238	0xbe5e452c	-0.21706074
239	0x3e8722a4	0.26393616
240	0x3e906714	0.28203642
241	0xbe9df812	-0.30853325
242	0xbe8a92ba	-0.27065068
243	0x3dcd35bd	0.100200154
244	0x3d2a5c3b	0.041591864
245	0xbd0d40bd	-0.034485567
246	0xbec9c4a3	-0.39407834
247	0x3e5dff06	0.21679315
248	0xbec1a28c	-0.37819326
249	0xbec97baf	-0.39352176
250	0x3e265ef8	0.16247165
251	0xbefe6432	-0.49685818
252	0xbe8e7353	-0.2782236
253	0xbe9b08a2	-0.30280024
254	0xbe6441da	-0.22290745
255	0xbdb52cd9	-0.08846445

linear1.bias f4 [256]
0	0xbe15d337	-0.14631353
1	0x3d3e50a1	0.046463612
2	0xbc86459c	-0.016390614
3	0x3d6ae455	0.05734666
4	0x3d9978df	0.074937575
5	0x3e4d1fe9	0.20031704
6	0xbeabdd4a	-0.33567268
7	0xbec5fa76	-0.3866765
8	0xbe073a4d	-0.13205834
9	0xbe09cc0a	-0.13456741
10	0xbe4797f7	-0.19491564
11	0xbdecd68e	-0.115643606
12	0x3f0797d0	0.5296602
13	0xbeea0638	-0.4570787
14	0xbee9301c	-0.45544517
15	0xbd7256cf	-0.05916482
16	0xbd5d3a25	-0.05401053
17	0x3eb621c5	0.3557264
18	0x3b2758c4	0.0025535086
19	0x3ec1bce2	0.3783942
20	0x3c296e71	0.010341273
21	0xbcc1ac90	-0.023641855
22	0x3e5c12a9	0.21491493
23	0xbe180d67	-0.14848863
24	0xbdddc35b	-0.10828277
25	0x3eb21d4c	0.34787977
26	0xbe3b7468	-0.18306124
27	0xbde6f90f	-0.11277973
28	0x3de39d8f	0.11114036
29	0xbdcb0634	-0.099132925
30	0x3e4e231d	0.20130582
31	0x3e0d7ceb	0.13817184
32	0x3e8b2449	0.2717612
33	0x3f1765d8	0.59139776
34	0x3e6cc0cb	0.2312042
35	0xbe83f701	-0.25774387
36	0xbe23086a	-0.15921178
37	0x3e23d13b	0.15997784
38	0x3e1682b8	0.14698303
39	0x3db2c458	0.08728856
40	0xbe427253	-0.18988924
41	0xbd827428	-0.06369811
42	0xbd432262	-0.047640212
43	0xbeddfc6e	-0.4335665
44	0xbe35ea5a	-0.1776518
45	0xbe612b66	-0.21989211
46	0xbe1ce0b7	-0.15320097
47	0x3d5831ec	0.052781984
48	0x3dff8af4	0.12477675
49	0xbe78c963	-0.24295573
50	0xbe23ac1c	-0.15983623
51	0xbde46f00	-0.11153984
52	0xbe5444ac	-0.20729321
53	0xbcb228b3	-0.021747923
54	0x3e04c7ae	0.12966797
55	0x3db59684	0.08866599
56	0x3e4e05e3	0.20119433
57	0xbe3b0ad4	-0.1826585
58	0x3df81dea	0.12115081
59	0xbd0cf8ac	-0.03441684
60	0x3ea121b5	0.3147103
61	0xbe68418a	-0.22681251
62	0x3c43c586	0.011948949
63	0xbddaa026	-0.10675077
64	0xbb28f955	-0.002578338
65	0xbd2b95b2	-0.041890807
66	0x3e8dccf2	0.27695423
67	0xbec012e3	-0.3751441
68	0xbdd7b481	-0.10532475
69	0xbdb4720c	-0.08810815
70	0xbe043624	-0.12911278
71	0x3d20b796	0.03923758
72	0x3f0948b5	0.5362657
73	0x3e6b03ce	0.2295067
74	0xbdcdfc38	-0.100578725
75	0x3dbd3b48	0.092398226
76	0xbe483713	-0.19552259
77	0xbe603113	-0.2189372
78	0x3e12e7e7	0.14346276
79	0xbe807f63	-0.25097188
80	0x3baea4e7	0.0053297165
81	0xbde16ad6	-0.110067055
82	0xbea355c3	-0.31901368
83	0xbde67406	-0.112525985
84	0xbdc57e9a	-0.09643288
85	0xbd18294b	-0.037148755
86	0x3defdb7f	0.117117874
87	0xbe401339	-0.18757333
88	0xbe807db5	-0.25095907
89	0xbd407317	-0.04698476
90	0xbe27a7e2	-0.16372636
91	0xbdcab651	-0.09898055
92	0xbe38d414	-0.18049651
93	0xbec31934	-0.38105166
94	0xbe24f7eb	-0.16110198
95	0xbe805244	-0.25062764
96	0x3cc278c0	0.023739219
97	0xbded2ded	-0.11581025
98	0x3e51e73a	0.20498362
99	0xbc297c9f	-0.010344653
100	0xbde78c32	-0.11306037
101	0xbe8b3921	-0.27192023
102	0xbe91fbef	-0.28512523
103	0xbe9d18fa	-0.30683118
104	0xbe7b7e69	-0.2455994
105	0x3da35d96	0.079768345
106	0xbe53b79c	-0.2067551
107	0x3d4ce7fa	0.050025918
108	0x3e0a1171	0.13483216
109	0x3e06dc00	0.13169861
110	0x3e316c57	0.17326485
111	0x3cdf9c78	0.02729629
112	0xbe4699bd	-0.19394584
113	0xbd1c5ada	-0.03817258
114	0xbb25f650	-0.0025323816
115	0xbd8770ea	-0.066133335
116	0xbedc0ed9	-0.42980078
117	0xbe07dc54	-0.13267642
118	0xbc619c42	-0.013770165
119	0xbd7fbb35	-0.062434394
120	0xbe0ba556	-0.1363729
121	0xbd54c808	-0.051948577
122	0xbe540270	-0.20704055
123	0xbe84d9e7	-0.25947496
124	0xbc88fd6b	-0.016722402
125	0x3e1f02a8	0.15528357
126	0xbe84ed98	-0.2596252
127	0xbe63d6e8	-0.22249949
128	0xbe127274	-0.14301473
129	0xbdf826ce	-0.121167764
130	0xbcad3548	-0.02114357
131	0xbd7e8890	-0.062141955
132	0x3d38b165	0.04509105
133	0xbde1534c	-0.11002216
134	0xbe8cb815	-0.27484193
135	0xbe0d0065	-0.13769682
136	0x3e530a55	0.2060941
137	0xbe51c56b	-0.20485465
138	0xbd7ebc29	-0.062191162
139	0xbdce05cb	-0.10059699
140	0x3e4a420b	0.19751756
141	0x3e794441	0.24342443
142	0x3e0aca31	0.13553692
143	0xbe8e5858	-0.27801776
144	0xbe93a3c3	-0.28835878
145	0xbe11b3fb	-0.14228813
146	0xbe0aaf69	-0.13543476
147	0xbe8680b4	-0.26270068
148	0xbe8a5f0a	-0.27025634
149	0xbe864905	-0.26227584
150	0xbd18dad7	-0.037318077
151	0xbe334b1d	-0.17509122
152	0xbcb9b4a5	-0.022669146
153	0xbe77bb67	-0.24192582
154	0xbe4ee26b	-0.20203559
155	0xbe4fd750	-0.20296979
156	0xbd05935d	-0.03261124
157	0x3df202cd	0.118169405
158	0xbe7c2334	-0.24622804
159	0x3e7a48e9	0.24441876
160	0xbe089a7c	-0.13340181
161	0xbd50cd42	-0.050977
162	0x3cf98caf	0.030462591
163	0xbd490d45	-0.04908492
164	0xbe2e096f	-0.16995786
165	0xbda5075f	-0.080580465
166	0xbe49faf1	-0.19724633
167	0xbeae441b	-0.34036335
168	0x3da72fb6	0.08163397
169	0xbe375ccd	-0.17906494
170	0x3e3e9d24	0.18614632
171	0x3e3abc8b	0.18235986
172	0xbe90d6a3	-0.28288755
173	0xbe4c22ce	-0.19935152
174	0x3e9f4067	0.31103823
175	0xbecfae1c	-0.40562522
176	0xbd416b3a	-0.0472214
177	0xbea83e8c	-0.3286022
178	0xbeb39b1e	-0.35079283
179	0xbe85ebc4	-0.26156437
180	0x3babdafe	0.0052446118
181	0xbc4f9f1c	-0.012672212
182	0x3d8ad227	0.06778365
183	0xbe864a06	-0.2622835
184	0x3cb02265	0.021500776
185	0xbdad52e9	-0.084630795
186	0xbca42615	-0.02003769
187	0xbe164d69	-0.14677967
188	0xbde1d8ea	-0.11027701
189	0x3dfa5a84	0.12224296
190	0x3ccbb535	0.02486668
191	0xbe73aa36	-0.23795399
192	0xbcd39008	-0.025825515
193	0xbd76b91a	-0.06023512
194	0xbe392be8	-0.18083155
195	0x3e450fbd	0.19244285
196	0xbe975911	-0.2956014
197	0xbd7e31db	-0.062059265
198	0xbd3c9c69	-0.0460476
199	0xbdc36dcc	-0.095424265
200	0xbe44531a	-0.19172326
201	0xbe2a4cd6	-0.16630873
202	0xbc2927b2	-0.0103244055
203	0xbe43f75a	-0.19137326
204	0xbe7375c4	-0.23775393
205	0x3f3c1302	0.73466504
206	0x3e22e928	0.15909255
207	0xbdef6f9a	-0.11691208
208	0xbe61e2c8	-0.22059166
209	0x3e074ea3	0.13213591
210	0xbe21f562	-0.15816262
211	0xbc734167	-0.014847136
212	0x3c95df06	0.018294822
213	0x3e7633a3	0.24043135
214	0xbe564a35	-0.20926745
215	0xbe16e8f0	-0.14737296
216	0xbca3073b	-0.019900909
217	0x3e3f11fd	0.18659206
218	0xbe124a56	-0.1428617
219	0xbd2d0b1a	-0.042246915
220	0x3f118e50	0.56857777
221	0x3c0a18d6	0.008428773
222	0xbe8566ac	-0.26054895
223	0x3ea4c8aa	0.32184345
224	0xbe0d550a	-0.13801971
225	0xbea2d788	-0.31805062
226	0xbdc8437e	-0.09778498
227	0xbe0b7aca	-0.13621059
228	0xbda0fca3	-0.07860687
229	0xbe2a4a9f	-0.16630028
230	0x3e6400c9	0.22265925
231	0xbe4f3538	-0.20235145
232	0xbe9bad03	-0.30405435
233	0x3d0da83a	0.03458426
234	0x3eb5c921	0.35505012
235	0xbce963cd	-0.028489972
236	0xbe559da8	-0.20860922
237	0xbe4478c2	-0.1918669
238	0x3c5a3766	0.013318872
239	0x3da20bd5	0.07912413
240	0xbd599252	-0.053118058
241	0xbe4e2008	-0.20129406
242	0xbeac1819	-0.33612135
243	0xbdf4015a	-0.1191432
244	0x3ec42a7a	0.38313657
245	0xbe7822c0	-0.24232006
246	0xbe8daa89	-0.2766917
247	0xbe80414f	-0.25049827
248	0x3e5f7432	0.21821669
249	0xbe9835ee	-0.29728645
250	0x3e21925a	0.15778485
251	0xbe81b008	-0.25329614
252	0xbe469b64	-0.19395214
253	0xbda6bef5	-0.08141891
254	0xbe6fc785	-0.23415954
255	0xbe227146	-0.15863523

linear2.weight f4 [3, 256]
0	0x3d3e7e41	0.046507124
1	0x3bec0029	0.0072021675
2	0xbe7b8253	-0.24561433
3	0x3e203616	0.15645632
4	0xbe55307b	-0.20819275
5	0x3d9f2400	0.07770538
6	0xbdb5aa92	-0.08870424
7	0xbc0bf444	-0.008542124
8	0xbf0ac630	-0.5420866
9	0xbe9e55de	-0.30924886
10	0xbecc44e9	-0.39896324
11	0xbd0915c2	-0.033468015
12	0x3e3efa92	0.18650272
13	0xbe638043	-0.22216897
14	0xbccf1f03	-0.025283342
15	0xbf087d28	-0.53315973
16	0xbebef2ef	-0.3729472
17	0x3e014e11	0.12627436
18	0xbe65e29d	-0.22449727
19	0x3eb6cc5d	0.35702792
20	0x3da33e77	0.079708986
21	0x3e901a3d	0.28145018
22	0xbea3fb72	-0.32027775
23	0xbe9a462a	-0.30131656
24	0x3de35883	0.11100867
25	0x3e801c86	0.25021762
26	0xbec2d052	-0.3804956
27	0x3e78d4ba	0.24299899
28	0x3d99b065	0.07504348
29	0xbe543e09	-0.2072679
30	0x3eace569	0.33768776
31	0x3e3596b7	0.17733274
32	0x3e9ffe06	0.31248492
33	0x3f02fd26	0.51167524
34	0x3d8db45c	0.069191664
35	0xbe83d7d1	-0.25750592
36	0xbcef5c50	-0.029218823
37	0x3e802217	0.25026008
38	0x3e9d8afc	0.307701
39	0x3ea98d8c	0.33115804
40	0xbd1a9869	-0.037743006
41	0xbe8ad929	-0.27118805
42	0x3b58b4a5	0.0033066657
43	0xbe8c126f	-0.27357814
44	0xbebd9e56	-0.37034863
45	0xbb909721	-0.004412547
46	0xbe55f7aa	-0.20895258
47	0xbdaf8c93	-0.08571734
48	0xbc495495	-0.012288232
49	0xbe99f5ff	-0.30070493
50	0xbf0a13b1	-0.53936297
51	0xbc7c33b7	-0.015393189
52	0x3d78f76b	0.06078283
53	0xbe11dea9	-0.14245094
54	0xbe9a6146	-0.3015234
55	0x3e0eb320	0.13935518
56	0x3e0d1c32	0.13780287
57	0xbbcdd850	-0.00628189
58	0x3ec846f9	0.39116648
59	0x3c368529	0.011140146
60	0x3f1733ee	0.59063613
61	0x3df78ca5	0.12087373
62	0x3e299174	0.16559392
63	0xbda50757	-0.080580406
64	0xbd04d247	-0.0324271
65	0xbbf8fa42	-0.0075981924
66	0x3db755e0	0.08951926
67	0x3cbd97b0	0.02314362
68	0xbe2bfaef	-0.16794942
69	0xbe013abe	-0.12620065
70	0xbc11e849	-0.008905479
71	0xbecb96bf	-0.39763448
72	0x3f0bccf6	0.5460962
73	0x3eee87ee	0.4658808
74	0xbdb0d6cc	-0.08634719
75	0xbeb21511	-0.34781697
76	0xbed076c9	-0.40715626
77	0xbebe433c	-0.3716067
78	0x3eb71843	0.35760698
79	0xbec26ec6	-0.37975138
80	0x3eeff93f	0.46869847
81	0x3ed578cd	0.41693726
82	0xbe2492ad	-0.16071577
83	0xbe9c7b4e	-0.30562824
84	0x3e516f5b	0.20452635
85	0xbed2ed02	-0.41196448
86	0x3ee6b729	0.45061615
87	0xbc49f210	-0.012325779
88	0xbe235d2d	-0.15953512
89	0xbecc1490	-0.39859438
90	0xbe3de49d	-0.1854424
91	0x3d4327ca	0.047645368
92	0xbda326f2	-0.079664126
93	0xbdc00f03	-0.09377863
94	0xbe001e0a	-0.12511459
95	0xbe2e50b3	-0.17022972
96	0x3d49d063	0.049271
97	0xbec162da	-0.3777073
98	0x3e9b5e23	0.30345258
99	0x3d746a26	0.059671544
100	0xbe877974	-0.2645985
101	0xbd91f2f1	-0.071264155
102	0xbe373511	-0.17891337
103	0xbe8a1b1a	-0.26973802
104	0x3c585307	0.013203389
105	0xbe932175	-0.28736463
106	0xbcdeefe2	-0.027213994
107	0xbd9ae492	-0.075631276
108	0x3ebb3106	0.3656084
109	0x3f064519	0.52449185
110	0x3d591acb	0.053004067
111	0xbebf4c6c	-0.37362993
112	0xbeab65bc	-0.33476055
113	0xbe9cd6e1	-0.3063269
114	0xbef30a5a	-0.47468835
115	0x3e8c37bf	0.2738628
116	0x3c1ea983	0.009683969
117	0xbd7e0b9d	-0.062022794
118	0x3e6cf5ac	0.23140591
119	0xbdb8058c	-0.08985433
120	0xbc92bbc5	-0.017911801
121	0xbdeeb763	-0.11656072
122	0xbd9c010a	-0.07617386
123	0xbdbc69a9	-0.091998406
124	0x3edc6a7a	0.43049985
125	0x3ec5f93f	0.38666722
126	0xbda77924	-0.081774026
127	0x3ea397cd	0.31951752
128	0xbdbec963	-0.09315755
129	0xbe5d8b66	-0.21635208
130	0x3dec89d9	0.1154973
131	0xbf4b3e88	-0.7939229
132	0xbe313f58	-0.1730932
133	0xbe45acef	-0.1930425
134	0xbd9f0b56	-0.07765834
135	0xb903bc90	-0.00012563379
136	0x3df56335	0.11981813
137	0xbdfc22c3	-0.12311318
138	0xbeab941c	-0.33511436
139	0xbd60147a	-0.054707028
140	0x3e08f2f8	0.13373935
141	0x3e037243	0.12836556
142	0xbdbef060	-0.09323192
143	0xbec48dd3	-0.38389453
144	0xbdbe88e3	-0.09303453
145	0x3e40998a	0.1880857
146	0x3cef2ac5	0.029195199
147	0xbee387ac	-0.44439447
148	0xbd290542	-0.04126478
149	0x3cb22004	0.021743782
150	0x3e9ff2cf	0.31239936
151	0x3e51eb45	0.20499904
152	0x3eb11f44	0.34594166
153	0xbe8b89aa	-0.27253467
154	0xbd60becb	-0.054869454
155	0xbcda2dc2	-0.026633147
156	0x3d4e3b26	0.050349377
157	0x3e8463ef	0.25857493
158	0xbe878c38	-0.26474166
159	0x3ea971e6	0.3309471
160	0xbe56c7a6	-0.20974597
161	0xbeda4901	-0.42633823
162	0xbf00d55e	-0.5032557
163	0x3cc88750	0.024478585
164	0xbe5d7676	-0.2162722
165	0x3e8fec71	0.28110078
166	0xbebeb45c	-0.37246978
167	0xbe07836d	-0.13233729
168	0x3e8fde3e	0.28099245
169	0xbe0e9799	-0.13925017
170	0x3d9330e1	0.07187057
171	0x3eaf0bc6	0.3418867
172	0xbe35d412	-0.1775668
173	0xbdccd396	-0.10001294
174	0x3ebc5803	0.36785898
175	0xbead2d69	-0.33823708
176	0x3e3adb95	0.18247826
177	0x3ce89d11	0.028395208
178	0xbe47bdac	-0.19505948
179	0xbed12c5f	-0.40854165
180	0xbe2ed897	-0.1707481
181	0x3c5b01bc	0.013367113
182	0xbca07378	-0.01958631
183	0xbe05275a	-0.13003293
184	0x3d9b6090	0.07586777
185	0xbdbfdf78	-0.09368795
186	0x3ef504f7	0.4785535
187	0xbdabd9f6	-0.08391182
188	0xbdb64ceb	-0.0890139
189	0x3f14f3e9	0.5818468
190	0x3e20afe1	0.15692092
191	0xbd79c3f3	-0.060977887
192	0xbe05c1c0	-0.13062191
193	0x3bb648e9	0.005562891
194	0xbeb067ac	-0.34454095
195	0x3eaa73d8	0.33291507
196	0xbee1dced	-0.44113865
197	0xbe8867df	-0.26641747
198	0xbe597b36	-0.21238407
199	0xbddc6d1f	-0.10763001
200	0xbe182ced	-0.14860888
201	0xbdf71753	-0.120649956
202	0x3eb2d42c	0.349275
203	0x3d0d277b	0.03446148
204	0xbe0e556d	-0.13899775
205	0x3e22d985	0.1590329
206	0x3e849017	0.25891182
207	0x3e0fbc7b	0.14036743
208	0xbd9c374e	-0.07627736
209	0x3e4f9460	0.20271444
210	0xbd1eb410	-0.03874594
211	0x3e5a24f2	0.21303156
212	0xbec372e3	-0.3817359
213	0x3d9912fe	0.074743256
214	0xbe02feec	-0.12792557
215	0x3c106cb7	0.008814982
216	0x3e00cfda	0.12579289
217	0x3e84fcba	0.25974065
218	0x3eba3171	0.36365846
219	0x3ebee0ef	0.37280986
220	0x3ece059a	0.4023865
221	0xbe66642f	-0.22499155
222	0xbc075774	-0.008260597
223	0x3e405901	0.18783952
224	0xbcc3bdef	-0.023894278
225	0xbe052ef7	-0.13006197
226	0xbc7f4292	-0.015579836
227	0xbf020e66	-0.5080322
228	0x3ea44f8f	0.32091948
229	0xbeb144a2	-0.34622675
230	0x3e63a057	0.22229134
231	0xbe6f4473	-0.23365955
232	0xbdb25ff6	-0.08709709
233	0xbc9b803a	-0.018982042
234	0x3e01e295	0.1268409
235	0xbe216c89	-0.15764059
236	0xbd90e1cd	-0.07074318
237	0xbd7dadb6	-0.06193324
238	0xbedffb30	-0.43746328
239	0xbcc37bdd	-0.023862774
240	0x3a544acb	0.0008098303
241	0x3bb27e70	0.0054472014
242	0xbd17a26e	-0.03702014
243	0xbe665364	-0.22492748
244	0x3e769cb4	0.24083215
245	0x3cf78c70	0.030218333
246	0xbe2a6548	-0.16640198
247	0xbed4f475	-0.41592756
248	0x3e02641d	0.12733503
249	0xbda98121	-0.082765825
250	0x3e6ec695	0.2331794
251	0x3cd021a3	0.025406664
252	0xbc2b0087	-0.010437137
253	0xbf0a8d6d	-0.5412205
254	0x3d865be9	0.06560499
255	0x3d1810f2	0.037125535

linear2.bias f4 [3]
0	0x3e544486	0.20729265
1	0x3da811ca	0.08206518
2	0x3dd85a77	0.1056413
